models/demo_C0_TOKYO_314.pt (torch_old, 4191 bytes, 5 tensors)

fc1.weight f4 [50, 4]
000000 b6 49 08 bf cd 37 7d bf 48 ff 82 bf 4e bc 3c 3d
       -0.53237474 -0.9891327 -1.0234156 0.04607802
000010 2f 48 98 3e 50 a8 24 bf cb f3 40 bf 20 33 54 3f
       0.29742572 -0.64319324 -0.75372 0.8289051
000020 8d c4 cc 3d 32 63 8b bd b9 ba ec be 63 84 92 3f
       0.099984266 -0.068060294 -0.46236208 1.1446651
000030 bf d8 bd bf 87 d4 6a bf ad 5c 29 bf 91 f3 d2 3e
       -1.4831771 -0.9173054 -0.66157037 0.4120145
000040 71 0d 08 be 95 8d 3c bf 8a e2 24 bf 3a 1e 95 3f
       -0.13286377 -0.7365354 -0.6440817 1.164985
000050 e1 b5 f3 3e cc d4 97 be 69 1c 07 bf 72 a6 b3 bf
       0.475997 -0.2965454 -0.52777725 -1.403517
000060 00 44 b1 be 5b 82 50 be 74 8a 87 bf 63 00 53 bf
       -0.34622192 -0.20362227 -1.0589128 -0.82422465
000070 6b 7a 16 bf 41 4d 49 be 5e d3 fc 3e 8d 8c 4c 3f
       -0.58780545 -0.19658376 0.4938001 0.79901963
000080 f4 62 44 3e a2 6c 47 bf c4 df b8 bf f6 5a 7e bf
       0.19178373 -0.77900136 -1.4443288 -0.99357545
000090 fc b8 5f 3f ea 34 9e bf 3c 74 8a be ba df 5e 3f
       0.8739164 -1.2359898 -0.27041805 0.8706013
0000a0 44 fd 2f 3f 6e b6 08 40 12 36 9e 3d b2 a2 4d be
       0.6874583 2.1361346 0.07725157 -0.20081595
0000b0 ae 0a b8 3e 40 27 d2 3e 8a 22 74 3f b6 63 56 bf
       0.35945648 0.4104557 0.953652 -0.83745897
0000c0 0c 48 37 bd c0 47 b8 bf 64 3a 71 3f fc d9 29 bf
       -0.044746444 -1.4396896 0.9422972 -0.6634824
0000d0 3a 52 e3 3f 67 d7 fe 3e e1 bf 44 3f 88 21 65 be
       1.7759469 0.49773714 0.76855284 -0.22376072
0000e0 92 d2 00 bf f2 38 db bf af 0c 1f 3f 88 8a e4 3d
       -0.50321305 -1.7126753 0.6212873 0.11159235
0000f0 f1 ea 38 bf 36 59 d9 3e 9b 63 9e 3f 9c 81 52 bf
       -0.7223349 0.42450875 1.2374147 -0.8222902
000100 63 b3 74 bf 03 79 3e bf af f5 1b bf 00 92 d7 be
       -0.9558622 -0.744034 -0.6092176 -0.42103577
000110 b8 0e db bf 98 48 b9 3e f0 52 2c 3e 7c 10 cd be
       -1.7113867 0.36188197 0.16828513 -0.4005164
000120 8f 0d a3 3f 06 ae e0 3e bf 6e 8d 3c 61 d9 a9 3e
       1.2738513 0.4388277 0.017264722 0.3317366
000130 90 73 6d bf c3 84 10 bf 7c 95 94 bf 6c e1 84 be
       -0.9275446 -0.5645258 -1.1608119 -0.25953233
000140 65 6c 94 be 63 0b 7f 3f a3 de 3e bf 18 c8 fc 3d
       -0.28988948 0.9962675 -0.74558467 0.12342852
000150 b7 50 cb 3f 36 00 9d 3e 57 57 5f bf 95 37 90 3f
       1.5884007 0.30664223 -0.87242645 1.1266962
000160 5d d6 d7 be e9 0d 53 bf ae 41 79 3f 10 be a4 3f
       -0.42155734 -0.824431 0.97365844 1.2870502
000170 f3 56 9a 3f 10 4a 03 3f 14 7a 4a 3f 8f 85 4c 3f
       1.2057785 0.51284885 0.79092526 0.79891294
000180 73 d6 ac be e0 01 91 3f 43 f7 ad bf 85 0a 3c bf
       -0.33757362 1.1328697 -1.3591083 -0.7345355
000190 23 5a b5 3e 0a 05 43 3e 45 a3 89 bf a6 e3 f8 3d
       0.3542033 0.19044891 -1.0752951 0.121527955
0001a0 c1 62 be 3f ae 70 9f 3d b5 23 91 bd 48 e5 9c 3f
       1.4873887 0.07785164 -0.07086889 1.2257471
0001b0 be 7b b0 3f 8c 43 2e be a1 52 30 3f 6e be 88 bf
       1.3787763 -0.17017955 0.6887608 -1.0683115
0001c0 6d d6 92 be d4 8a ef 3d 54 30 56 be aa cd 8f 3f
       -0.2867922 0.11696401 -0.20916873 1.1234639
0001d0 18 02 02 bf c9 fe 2e bf c6 65 94 bf 69 ee c2 be
       -0.50784445 -0.6835752 -1.1593559 -0.38072518
0001e0 f3 20 8c 3f 2b 45 7e bf a3 af 85 3d 73 0a 17 3f
       1.0947555 -0.9932429 0.06527641 0.5900032
0001f0 64 29 41 3e e6 fe 28 be 72 9c 32 3d 68 fb 38 bf
       0.18863446 -0.16503486 0.04360623 -0.72258615
000200 23 07 86 3d a8 e4 80 bf 2e 69 27 bf 37 9d 52 bf
       0.0654433 -1.006978 -0.65394866 -0.8227114
000210 43 73 71 be 83 ad 97 3f 3a ab 07 bf ae 7d 5b 3e
       -0.23579125 1.1849827 -0.52995646 0.21434662
000220 db d7 67 3f bd 11 b3 3f 94 92 a7 bd 5f 3a 19 3e
       0.90563744 1.3989788 -0.081822544 0.14963673
000230 8a 37 88 be 67 a6 0d be e8 41 1a bf 5e f9 aa 3f
       -0.26604873 -0.13833009 -0.60256815 1.3357351
000240 d0 c0 80 be d3 94 3b bf a0 e3 af bf 7f b7 36 bf
       -0.25147104 -0.7327396 -1.3741341 -0.7137374
000250 92 6f 73 bf e8 13 e3 bf f9 d3 74 3f df f7 b4 3f
       -0.9509212 -1.774045 0.95635945 1.4138144
000260 24 2c 27 3d 76 23 20 bf 3e a6 9c 3f 12 2b 9c 3f
       0.04081358 -0.6255411 1.2238233 1.2200644
000270 58 97 b3 3f 67 33 54 3f 7b d3 34 bf 79 2e c3 be
       1.4030561 0.82890934 -0.70635194 -0.38121393
000280 84 70 e4 bf 3d f5 b4 bf d8 1b 83 be 23 36 1b 3f
       -1.7846837 -1.4137341 -0.2560718 0.6062948
000290 50 2e 19 3e 8c c3 cf 3e a0 5d 1c be b8 57 8c bf
       0.14959073 0.40578878 -0.1527009 -1.096427
0002a0 fb e1 06 bf 44 00 21 c0 d4 29 86 3f 70 25 84 be
       -0.5268857 -2.5156412 1.0481515 -0.25809813
0002b0 c2 10 bd bf 80 25 9b bf af b6 8c bd 48 ae 44 3f
       -1.4770739 -1.2120819 -0.06870782 0.7682843
0002c0 a9 05 e0 bd 71 9a 8c bf 32 f7 1f be 97 75 c0 3e
       -0.109385796 -1.0984632 -0.15621641 0.37589714
0002d0 05 36 d3 3e ba 7b bc be 57 6b 49 bf ab 0d 17 bd
       0.4125215 -0.36813146 -0.7867941 -0.03687827
0002e0 aa a3 11 bf fc ae 3f bf 2e cd 1c bf 41 c0 2a 3f
       -0.56890357 -0.7487638 -0.6125058 0.66699606
0002f0 6c c4 d6 bf 91 47 57 bf 7c 15 93 3e 8a a8 08 bf
       -1.6778693 -0.84093577 0.2872733 -0.5338217
000300 55 61 64 bd d7 e9 0a 40 15 2d 64 3f b4 0d 34 bf
       -0.055756886 2.1705225 0.8913129 -0.7033341
000310 12 ba 99 3f 88 db c0 3d d2 73 17 be ef 92 a2 bf
       1.2009909 0.09416872 -0.14790276 -1.270109

fc1.bias f4 [50]
000000 75 c4 ee bd 61 f1 4a be 78 45 2e 3d 62 4b 6b 3e
       -0.11658565 -0.19818641 0.04254672 0.22977975
000010 59 cc 01 3f 1b cd c2 be d8 60 5f bf 2d e7 e2 3e
       0.50702435 -0.38047108 -0.87257147 0.44316998
000020 9c d5 c7 be 9d eb 8c 3e 4e 5a 16 3f 80 6f f2 3e
       -0.3903016 0.2752351 0.58731544 0.47350693
000030 70 a3 a5 3e ea 80 4d 3f 28 e6 64 3e a3 97 00 3f
       0.32351255 0.8027483 0.22353423 0.5023138
000040 29 2a 19 bf d2 ff 30 3d df c5 14 bf da 0e 03 be
       -0.59829956 0.04321272 -0.5811443 -0.12798634
000050 9c 6d ef 3e eb 60 cd 3e 47 0b f7 bd ca 2b 7b be
       0.46763313 0.40113005 -0.12062698 -0.24528423
000060 ac e3 2b be 7b fa cd 3e fb 77 11 3f 86 85 f4 be
       -0.16786069 0.40230164 0.568237 -0.4775812
000070 b9 71 7a 3e 72 f3 0f bf 96 e1 8a 3d 78 2d ff bd
       0.24457444 -0.56230843 0.06781308 -0.12459844
000080 00 8b 12 bf fe e9 80 3f 12 0b 3b 3f 9b dd a0 bd
       -0.5724335 1.0071409 0.73063767 -0.07854768
000090 3a 57 bf 3e 8c 96 8f bc 83 c2 d8 bd 45 64 32 bd
       0.37371236 -0.017527841 -0.10583975 -0.043552656
0000a0 e9 1a 02 3f 78 a7 9d bd f0 ef ab be bb 2e ce 3b
       0.5082231 -0.07697958 -0.33581495 0.006292192
0000b0 ef bf 11 3e c5 c3 ce 3e a5 59 27 3f 5b b9 94 3d
       0.14233373 0.40383735 0.6537116 0.07261916
0000c0 00 75 3a 3f ab e3 61 3e
       0.7283478 0.22059505

adv_out.weight f4 [10, 50]
000000 39 cb cf bd bf 7b 67 3e 8f f3 b1 3e 4c 6b fc be
       -0.101461835 0.22605799 0.34756133 -0.4930061
000010 96 5f ac 3d d3 c6 ab be 37 85 83 bf 4d 31 e4 3e
       0.08416669 -0.33550128 -1.0275029 0.44568864
000020 7d dc 42 3f 1f 61 ba be 0c f5 df be d1 83 10 bf
       0.7611769 -0.36402223 -0.43741643 -0.56451136
000030 07 9a 89 3e 1d 62 37 be 18 a5 51 be 2c 30 59 3e
       0.26875326 -0.17908521 -0.20473135 0.21209782
000040 c2 b5 0f 3e 88 07 3f bc 92 3e 67 3e ab f7 b2 bf
       0.14034179 -0.01165951 0.22582462 -1.3981832
000050 d8 53 b3 3f ea 4e 9f 3e 68 ae 1c 3f da 65 77 3d
       1.4009962 0.31114894 0.6120362 0.060399868
000060 65 1f ed 3f 78 0f 26 be 10 00 5d bd e0 74 5e bf
       1.8525206 -0.16216838 -0.053955138 -0.8689709
000070 97 d5 f0 3d 8e 07 0a be 34 f1 86 3e 5c 8b 8a be
       0.11759489 -0.13479444 0.26355898 -0.27059448
000080 e5 43 cb 3f f9 de 48 3f 63 5d 3b bf 18 a6 93 3e
       1.5880095 0.7846523 -0.7318937 0.28837657
000090 05 bd 7f bf cc 7b 22 3f 22 cc 39 3e cb c1 87 be
       -0.99897796 0.6347015 0.18144277 -0.2651504
0000a0 05 c4 4e be 56 5f 2d 3e 14 58 13 bf 70 5f 1f 3e
       -0.20191963 0.16930899 -0.5755627 0.1556375
0000b0 d1 c0 ba 3e ba 93 eb 3d 02 c7 06 3f 18 cf fa be
       0.36475232 0.11502786 0.5264741 -0.48986125
0000c0 ef 2e d8 be 97 0f 3a bf 77 fd fe 3e 8b d9 c2 3e
       -0.42223307 -0.7268004 0.49802753 0.38056597
0000d0 4a f5 bc 3d d3 e5 c7 bf cf 32 ca bd 49 01 ad be
       0.09226473 -1.5617012 -0.09872972 -0.33790043
0000e0 b8 ec 6a 3e 02 26 0a 3f be 4e 61 bf f3 9d c1 3e
       0.22941864 0.53964245 -0.88010776 0.37815818
0000f0 9d ba 51 bf ac 91 28 bf 39 a6 4b 3f 58 23 13 bf
       -0.81925374 -0.6584728 0.7955051 -0.57475805
000100 ee 79 8b be 5c 6e 1f bf 4c b6 66 3e 0b 47 69 3f
       -0.27241462 -0.6227777 0.22530478 0.9112403
000110 e0 84 cd bd 82 70 9c bf 40 a9 88 3f 6a d0 3e be
       -0.100351095 -1.2221835 1.0676651 -0.18634191
000120 c8 a3 15 3f 47 b7 89 3b 43 ad b1 3f 9d 2f cd be
       0.58453035 0.0042027566 1.3881 -0.4007539
000130 18 36 a3 3e e0 98 09 bf 54 56 b0 3e 9c 25 14 3f
       0.31877208 -0.53748894 0.34440863 0.5786989
000140 33 3f 3b 3e c0 1c 95 3d 03 55 10 be d4 fa 35 3f
       0.18285827 0.07280874 -0.1409493 0.7108586
000150 16 db df be 3f 8c d5 3e 5f a1 6b 3f 29 26 b7 3e
       -0.43721837 0.41708562 0.9204311 0.357713
000160 8b 4f 03 3f 0e d8 fd bd 1f 2d 54 bf e0 ce 85 bc
       0.5129325 -0.12394725 -0.8288135 -0.016333997
000170 e1 36 a5 be 35 ef 80 3e 4d e4 07 3f b8 20 85 3e
       -0.32268432 0.251825 0.53082734 0.26001525
000180 51 b4 7a 3e f2 15 3c 3e 6d e8 1b bf 4c 40 fa bf
       0.24482848 0.18367746 -0.6090153 -1.9550872
000190 69 83 09 3e 0e 40 3d 3d eb 06 c0 3e d8 0a 8a be
       0.13429035 0.046203665 0.37505278 -0.26961398
0001a0 95 21 2a be 32 f4 5e bd 4e 3a 44 3e 38 cb 58 3e
       -0.16614373 -0.0544321 0.19162866 0.21171272
0001b0 ac af 58 3f 13 54 bd be b8 cd 29 3e 34 ec aa 3e
       0.84643054 -0.36978206 0.16582382 0.33383334
0001c0 65 75 89 3f 5d 00 cf bd 75 be b3 be 41 7f d8 3d
       1.0738951 -0.10107491 -0.35106245 0.10571147
0001d0 0c d6 ab 3d 4f b3 b2 3e 57 31 83 be e1 01 13 bf
       0.083904356 0.34902427 -0.2562358 -0.5742474
0001e0 64 18 55 3e ef 21 04 3f 55 d6 ff 3d c0 5d bf 3e
       0.20810086 0.5161428 0.124920525 0.37376213
0001f0 ee 07 70 3e 72 83 95 bc 34 af 40 3e d4 93 94 be
       0.23440525 -0.018251155 0.18816835 -0.29019034
000200 14 84 51 bb ed 66 d9 be 56 5c f2 3e fa 7a 70 3c
       -0.0031969594 -0.4246134 0.47336072 0.014677757
000210 0f 90 52 3f 1f 31 35 3f 9d 9a f8 be 27 e7 c5 3e
       0.82251066 0.7077808 -0.4855546 0.38652918
000220 b2 c6 c3 3d 0f 7c 1a 3f 2c 67 fd 3d 9f 4f d0 be
       0.095593825 0.6034555 0.12373194 -0.40685746
000230 c2 39 ab bb 2e 4b 7e 3e 15 87 4b be f5 89 ce 3d
       -0.005225391 0.24833366 -0.19875748 0.10084907
000240 c2 ad e0 3e 1d 6e 61 bd 32 0d c9 3e 28 f2 84 3c
       0.43882567 -0.055036653 0.3926788 0.01622875
000250 54 6a 92 be 4d b4 06 bf 28 53 10 3f 37 4b cb 3d
       -0.28596747 -0.5261887 0.56376886 0.099264555
000260 b6 55 84 3e 22 94 b5 be f6 f9 b7 3d fb b1 2b be
       0.25846642 -0.3546458 0.08983223 -0.16767113
000270 d2 b0 1b be 07 2a 06 3e 6d 57 c5 3d f9 00 85 3e
       -0.1520417 0.1310197 0.09635816 0.25977305
000280 9d 46 95 be bb cc c5 be 6d 57 80 ba b9 56 e7 be
       -0.29155436 -0.3863276 -0.000979168 -0.45183352
000290 a4 d6 f5 be 38 9c 14 3f a0 78 f6 3e de fb cb 3c
       -0.4801532 0.5805087 0.48138905 0.024900373
0002a0 43 97 c2 bd 0f 4c 22 bf 68 f2 aa 3e 41 d2 74 3e
       -0.09501507 -0.63397306 0.33388066 0.2390833
0002b0 e4 1d dc 3e a6 b2 85 3c 72 19 5b be dd d0 1a be
       0.42991555 0.016320538 -0.21396425 -0.15118738
0002c0 20 0e 30 3f 5c 69 26 bf 0d 9b 12 be cf 51 ac be
       0.68771553 -0.65004516 -0.1431696 -0.33656165
0002d0 90 cc c6 3e 75 75 97 3e fd fd 1a 3f 90 3b a3 3e
       0.38827944 0.295818 0.60543805 0.3188138
0002e0 07 15 03 be 93 a0 af bc 80 ef 1e 3e 58 c6 7f 3d
       -0.1280099 -0.021438872 0.1552105 0.062445015
0002f0 f4 6c f4 3e b0 f1 85 be 1b 8f 4b be 26 3c 98 be
       0.47739375 -0.26160955 -0.19878809 -0.2973339
000300 06 b2 1a 3f bf c8 06 3d b1 d2 05 bd 56 39 04 bf
       0.6042789 0.03290629 -0.032671634 -0.5164999
000310 9c b6 dc 3d 24 72 08 be c3 89 9c 3e 65 52 6e bf
       0.107770175 -0.13324791 0.30573854 -0.93094474
000320 af 31 18 3e 29 da 82 be f0 0e 46 bd fc d4 23 3f
       0.14862703 -0.25557068 -0.04835409 0.63996863
000330 08 6f 88 3d 06 99 2f 3c 98 01 b4 3e 3a 09 bd bb
       0.066618025 0.010717636 0.35157466 -0.005768922
000340 21 ac 04 bf 9a e7 55 bd ab 99 08 3e 36 d8 17 3e
       -0.5182515 -0.052222826 0.1333987 0.14828572
000350 49 14 9f be 2d 8a 83 3b ab 72 04 bc 0f 46 d4 3e
       -0.31070164 0.0040142746 -0.00808398 0.414597
000360 0e 52 a5 be 63 50 16 be f0 d4 e0 bd f9 6d 17 be
       -0.32289165 -0.14679103 -0.109781146 -0.14788045
000370 cc 1e ec 3d 3e 1f 7c 3e 4c 9f 09 3f c1 b2 44 3d
       0.115293115 0.24621293 0.5375869 0.048022036
000380 57 4f 1c bf 84 3f 0f 3f 15 2d 02 3f 64 e4 fd bd
       -0.61058563 0.5595629 0.5085004 -0.12397078
000390 20 0e 07 be 77 55 09 3e 0d 5c 12 3e 35 a0 6a bd
       -0.13188982 0.13411509 0.14292927 -0.05728169
0003a0 22 25 ef 3d e6 9c 39 39 06 4b f4 3e be 12 28 3e
       0.116770044 0.00017701424 0.47713488 0.164134
0003b0 4c e5 f5 3e 53 6e 22 3e 8b 09 9e 3e 11 d9 81 be
       0.48026502 0.15862398 0.30866656 -0.2536092
0003c0 a1 5d 01 3e 8a 4f 1e 3e 97 1f a2 be 33 e1 81 3e
       0.12633373 0.15460029 -0.31664726 0.25367126
0003d0 6f 00 09 3e 20 82 fb bb f8 77 c6 3d f9 73 28 be
       0.13379072 -0.007675424 0.09690851 -0.1645049
0003e0 f8 4b 94 3e eb f1 87 bd 5c df 93 3b 5f 08 d5 3e
       0.2896421 -0.06637939 0.0045127105 0.4160795
0003f0 dd b6 59 3e 64 92 10 3f 0b b4 f5 bc 33 26 01 be
       0.21261163 0.56473374 -0.029993078 -0.12612228

adv_out.bias f4 [10]
000000 ef 3a 94 3e 87 5a 0f 3e e1 c2 e6 3b 4b d5 1f 3e
       0.28951213 0.13999377 0.0070422743 0.15608709
000010 3b 2a 33 bd 7a c0 dd 3d be 92 ef 3d 61 7d 9b bc
       -0.043741446 0.108277276 0.11697911 -0.018980684
000020 1a 72 32 3e 7b bc 19 3e
       0.17426339 0.15013306

val_out.weight f4 [1, 50]
000000 03 4b 81 3e 6f dc 33 3e 84 93 5b 3e 50 7a bf bf
       0.25252542 0.17564557 0.21442991 -1.4959202
000010 41 d7 cd 3e 79 ee d9 be f7 20 f1 bf 33 51 75 3e
       0.40203288 -0.42564753 -1.8838185 0.23956756
000020 53 8b b0 bc 4b 13 09 be 2f d2 1e bf 5a 69 a1 bf
       -0.02155081 -0.13386266 -0.62039465 -1.2610276
000030 f1 5e 00 40 19 84 95 bf 09 be 70 bf d5 87 12 bd
       2.0057948 -1.1680938 -0.9403997 -0.03577407
000040 af 49 09 bf a2 64 db be e3 a7 50 bf a6 28 c4 bf
       -0.5362806 -0.42850214 -0.81506175 -1.5324905
000050 f1 c5 e7 3e 0d e7 3b 3f 0c b2 3f 3f 31 e3 92 be
       0.45268205 0.7339943 0.7488105 -0.28688958
000060 7d 1a 07 40 0d 31 2e bf eb 0d 37 3f 42 7a b2 bf
       2.1109917 -0.68043596 0.7150561 -1.394356
000070 b6 eb 2e 3e 81 76 66 bf 37 87 b2 3e d1 04 e6 3c
       0.17082104 -0.9002457 0.34868786 0.028078469
000080 bf 7e b5 3f 2b d1 f9 3e 2b cc 69 bf 0b eb ee 3e
       1.4179305 0.48792395 -0.9132716 0.466637
000090 8c 8c c3 bd 61 60 1f 3f 01 35 3d 3f 32 48 0a bf
       -0.095482916 0.6225644 0.73909 -0.5401641
0000a0 4b e1 e5 bf fc ae a2 be 8b ff 23 c0 51 20 79 bf
       -1.7959379 -0.31774127 -2.562472 -0.97314936
0000b0 53 c7 8f bd f7 47 22 3e 15 0c d3 3e 06 66 92 bf
       -0.0702044 0.15847765 0.41220155 -1.1437385
0000c0 91 00 52 bf 25 2b 4b c0
       -0.82032114 -3.1745083
